Model's Architecture Summary:
Model: "sequential"
_________________________________________________________________
 Layer (type)                Output Shape              Param #   
=================================================================
 conv2d (Conv2D)             (None, 26, 26, 32)        320       
                                                                 
 max_pooling2d (MaxPooling2  (None, 13, 13, 32)        0         
 D)                                                              
                                                                 
 flatten (Flatten)           (None, 5408)              0         
                                                                 
 dense (Dense)               (None, 128)               692352    
                                                                 
 dense_1 (Dense)             (None, 10)                1290      
                                                                 
=================================================================
Total params: 693962 (2.65 MB)
Trainable params: 693962 (2.65 MB)
Non-trainable params: 0 (0.00 Byte)
_________________________________________________________________
Test Accuracy: 0.9369000196456909 or 93.69%
Classification Accuracy: 0.9369 or 93.69%
Additio
…
